checkpoint/cifar10_medium_cnn_30_maxpool_ReLU.pt (torch, 643591 bytes, 10 tensors)

0.weight f4 [32, 3, 3, 3]
00000000: 0522 dd3d e71d 423e 3784 c9bd 8dc6 503e
00000010: ee7d d23d 5718 ce3d 164e 27be aac1 383e
00000020: 533c 713e 0d12 17bb ebf4 d93e 51bd 6c3e
00000030: fbbe 803e fa06 aa3e 67d0 c03e 947b 9fbd
00000040: 303e 953e 734c 7a3e 4eee f4bd c166 e43d
00000050: 687a 3bbd d16c 29be 7b40 bebd 8d5c 0a3e
00000060: 4387 bbbe fa6c 63be 66e8 f3bd 2dd8 91be
00000070: 4a6d 913e 878e 93be 3fae ec3e a89a 9ebe
00000080: e75f 333d 267f dc3c 23bb eabd 517b 063f
00000090: c00f f6bd 4fb4 b63e 1751 36bd 71e3 873e
000000a0: ce40 50bd c028 acbd 8438 6e3d 310d 6f3d
000000b0: ad9d da3e 5ed4 2abe ce33 ad3e fca9 9cbd
000000c0: edf0 8e3e 5f06 c6be a7e6 d8be 3fbc c4be
000000d0: 50ee 0abf 1a48 513e baa8 d63e 1f2e 093e
000000e0: dd59 abbe 85fd c73e e00f 403e 7a61 16bf
000000f0: 5e0d 7b3e 4eb2 70be 1a07 34bd b0a1 df3e
00000100: 3e32 9e3d d7fa 1ebf 1c34 2a3f b0a0 00be
00000110: dfed 2ebf de4f 1a3e 9348 06bd 8474 32be
00000120: c1c9 3a3f f034 e53a 1886 2bbf e422 e73e
00000130: c86c 8c3d 263c e3be 5141 ac3e 52cf c63d
00000140: f7da 93be 29b3 603e d95a 50bf 308c d23e
00000150: 3425 4d3f 9841 c1bf 05c2 743f 6d5a 0d3f
00000160: 51bf 9fbf 1af2 1c3f d831 ef3e 1c69 7fbf
00000170: 6a3c 103f eb0e 6d3f c68f cdbf a562 453f
00000180: 8ccf 4f3f 3fa4 9dbf c928 043f b31b 543e
00000190: afac 44bf 5cd7 fc3e 2c23 503f 0610 a4bf
000001a0: 5498 563f 0cb3 073f a6df 86bf 1f01 be3e
000001b0: a6c8 56bc 6581 073e 54ef 033f 7dc7 80bd
000001c0: 83ae 0b3e b858 643e 9dcc a3be 8037 a0be
000001d0: 2a3d aa3d 0cf2 1bbf 3172 a8be c2aa 20be
000001e0: da5b 05bf 0f98 9dbe 4805 253e 88c6 26bf
000001f0: cb9c 1ebf 3927 87be 1239 123d 44b0 ab3d
00000200: 7c96 d93e b460 943b de0d eb3e e970 173f
00000210: b473 2bbe 3b89 163e 9840 213e f697 ccbe
00000220: 16df 3bbe 4811 0dbf 706b 68be e8b8 b93c
00000230: c985 4fbe 2aec ddbe c5ea 123e 132c c5be
00000240: 0fe0 1fbe 469f 833e a408 d1bd 5123 f63d
00000250: 0078 083f 5912 52be 420f 43bd 9f58 1b3e
00000260: 513f 57bd 170e 6abe a3ea dd3e 116e b2be
00000270: 73ee 103e 36ad 083f 3725 e63d fa31 f4bd
00000280: a476 073f c0fc 173e ac51 6d3e 8c09 ac3e
00000290: 2916 9e3e 2032 99be df89 8dbe d182 ad3e
000002a0: 8621 a83d 4415 e3be febf a7be f08c b23d
000002b0: df28 0d3f 3891 0c3e 0e3a c5be 6364 85be
000002c0: 6a9d 233d bb23 9f3d 4bab 81be 0ce2 febe
000002d0: 6b15 4a3e 26a4 0c3f 59a3 4b3e 154c 4abe
000002e0: 8f14 443d 5e92 c93e 9b64 1b3e a85e c1be
000002f0: 29d2 92be b2eb b73e 6aa6 eebe b72f c9be
00000300: 6747 6a3e 5a4b 743f 87a2 84be 7102 31bf
00000310: ebf0 46be a050 e93e ffe9 d03e bb04 b7be
00000320: efed 08bf bdf4 16bc c8fa 6e3f 46a2 47be
00000330: 74e4 21bf ade3 b0be 603d a93e 8301 6b3e
00000340: c052 08bf a889 e4be 5786 b63e 07fc 6d3f
00000350: 3b08 f7be 6075 0fbf 5423 97bd eb15 3c3f
00000360: 5fe9 2e3f b6df 103f c448 483e 8e62 2dbf
00000370: e8e8 6cbf 5f07 01be ff63 f6bc bb5c 673e
00000380: 68b8 e03c 89ed 033f 27de 073f d358 553d
00000390: 48c8 4abf 0478 82bf 6dd4 d1be 0a23 7b3e
000003a0: 4de0 e03e 7645 f73e e710 f23e 0a49 ec3e
000003b0: 24de dd3c 9402 1abf 656c 4dbf 4f1c c2be
000003c0: e0c6 9b3e 6e22 bf3e 69a4 a33e 3114 0ebf
000003d0: 4877 6b3e 2f87 a9be d3c3 b9be 2ef4 c63e
000003e0: b592 7bbe bb8b 863e 03ff a93e a5b2 d4bc
000003f0: dbdc b8be 8922 953e 0c6a 4bbe f7c9 b5be
0.10797504 0.1895672 -0.09839671 0.20388241 0.102779254 0.10063236 -0.16338381 0.18042627
0.23558168 -0.002305153 0.4256967 0.23119093 0.25145707 0.33208448 0.37658998 -0.077872425
0.29149008 0.24443226 -0.119595155 0.11152411 -0.045771033 -0.16545416 -0.092896424 0.13511868
-0.36626634 -0.2220954 -0.11909561 -0.28485242 0.28403693 -0.28819677 0.4622669 -0.30977368
0.04379263 0.026916098 -0.11461475 0.52531916 -0.12014723 0.3568444 -0.044510927 0.26540712
-0.050843053 -0.0840621 0.058159366 0.05836219 0.42698422 -0.16682574 0.33828586 -0.076496094
0.27918187 -0.38676736 -0.42363474 -0.3842487 -0.54269886 0.20437661 0.41925603 0.133965
-0.33466998 0.39060608 0.18756056 -0.5874249 0.24516818 -0.23505518 -0.043952085 0.43678045
0.07724427 -0.621015 0.6648576 -0.12561297 -0.6833171 0.1506953 -0.032784056 -0.1742726
0.729641 0.001748709 -0.67001486 0.45143807 0.06856686 -0.44381827 0.33643582 0.09707512
-0.28877994 0.21943344 -0.8138862 0.4112258 0.8013489 -1.5098143 0.9560855 0.55216104
-1.248026 0.6130692 0.46717715 -0.9976976 0.56342185 0.9260089 -1.6059501 0.77103645
0.81176066 -1.2315749 0.51624733 0.20713691 -0.76825994 0.49383056 0.8130367 -1.281739
0.83826184 0.5300758 -1.0537002 0.3711023 -0.013109362 0.13232954 0.5153706 -0.06288049
0.1364079 0.22299469 -0.31992045 -0.31292343 0.08312447 -0.6091621 -0.3289962 -0.15690139
-0.5209328 -0.30780074 0.16115296 -0.65146685 -0.61958 -0.26397112 0.035698958 0.083832294
0.42497623 0.0045281295 0.45909017 0.5915666 -0.16743356 0.14700787 0.15747297 -0.39959687
-0.1834682 -0.55104494 -0.22697234 0.022671178 -0.20265879 -0.4334424 0.1434737 -0.38510188
-0.15612815 0.25707453 -0.10206726 0.12018455 0.53308105 -0.20514812 -0.047621973 0.15170525
-0.052550618 -0.22856937 0.43343076 -0.348496 0.14153461 0.533893 0.11237567 -0.11923595
0.52915406 0.1484251 0.23175687 0.33601034 0.30876282 -0.29921055 -0.2764425 0.33888867
0.08209519 -0.44352162 -0.32763666 0.08718288 0.5514049 0.13727272 -0.38520855 -0.2605315
0.039945044 0.07770487 -0.25326 -0.49781835 0.19734733 0.5493797 0.19886531 -0.19755585
0.04787117 0.39369482 0.15175097 -0.3776753 -0.28675964 0.3592201 -0.4661134 -0.39294216
0.228788 0.9542748 -0.2590525 -0.6914435 -0.1942784 0.45569324 0.40803525 -0.35745797
-0.5348806 -0.009213624 0.9335141 -0.19495496 -0.63239217 -0.34548703 0.33054638 0.22949795
-0.53251266 -0.44636273 0.35649368 0.9296269 -0.48248467 -0.56038475 -0.07379785 0.73470944
0.68324846 0.56591356 0.19559008 -0.6772851 -0.92542887 -0.12600468 -0.030076979 0.22593968
0.027431682 0.51534325 0.5307335 0.052086663 -0.79211855 -1.0192876 -0.4098238 0.24525085
0.43921128 0.48295182 0.4727852 0.46149474 0.027083464 -0.60160184 -0.8024352 -0.37912223
0.30425167 0.37330955 0.31961372 -0.5549956 0.22994721 -0.3311095 -0.36282215 0.3885817
-0.24567683 0.2627848 0.3320237 -0.02596409 -0.36106 0.2912791 -0.19864672 -0.3550565

0.bias f4 [32]
00000000: 7ef4 46bf 8e23 96bd 16d8 0cbe 1320 72be
00000010: c60c 2dbf 7ec1 23be 9eaa f3bd b56c 0cbe
00000020: 2fba c8bd 098d 73be 1355 16bf 1f71 cabe
00000030: d092 f5be 58e7 a4be 1871 0bbe 324f adbe
00000040: bf27 5bbe 99f1 12be 3cca b7be 1409 8c3d
00000050: b728 15bc 6f8b 01be cbf2 31be 2778 74bf
00000060: 62db 95be a5a5 893e 3d94 43be d11f c6be
00000070: 40c3 c3be b527 a9bd 01b6 f6bd 9f15 9a3e
-0.77716815 -0.07331 -0.13754305 -0.23645048 -0.67597616 -0.1599178 -0.11897777 -0.13713343
-0.09801137 -0.2378427 -0.5872356 -0.3953943 -0.47963572 -0.3220775 -0.1361736 -0.33849484
-0.2140188 -0.14349975 -0.3589648 0.06837669 -0.009103945 -0.12650846 -0.17377774 -0.9549584
-0.29268938 0.2688419 -0.19099517 -0.3869615 -0.382349 -0.08259527 -0.12046433 0.3009462

3.weight f4 [64, 32, 3, 3]
00000000: c8f7 9cbc b6a7 16bd d763 df39 6176 973c
00000010: 5c43 9e3d 16ef 9a3d bbff a23d 1c1a 0ebd
00000020: 36bc 4c3d 92d6 1d3c 9466 34bd 8696 2a3b
00000030: a0e7 bcbc 7997 1ebd a3c3 69bd 7090 6d3b
00000040: 28d7 013d ed73 253c a4ad 1d3d ee8a a9bd
00000050: 54c6 12be aa54 aa3d 64e2 7cbd 2cb3 a5ba
00000060: 569a 83bd 7af8 bc3a 5860 7ebd cbfe 3c3c
00000070: 2b61 963c 74d8 27be 8c01 b4bd 3b0c a73e
00000080: 9469 e4bd 12f4 bcbd 1197 a53e f1f2 a8bd
00000090: ba22 91bd 3f1d 1dbd b77a 6cbc 0e5b 91bd
000000a0: 9e07 adbc 18a0 cb3c dde3 43bd 4161 acbc
000000b0: 8fe5 e8bd bf48 15bd 16d9 78bd c118 b2bc
000000c0: e4c1 d9bd 0733 a3bc a4b9 3bbd 6fb1 bdbd
000000d0: 28cf bcbd 97b9 e9bc 3520 d0bc 0ec8 10bd
000000e0: 2071 aebb 44a5 f5bc 81c6 fd39 7ddd 48bd
000000f0: a04d c4bd 6cbb 34bd cd1f a23c 5d02 983a
00000100: 16be 9ebc 0f0e 0e3b 34a6 5fbd d963 8fbd
00000110: f3f7 60bd 26d3 af3c e984 7b3b 1a23 bebc
00000120: 7a0a 14bd 80e8 6abc 1140 9c3d ad1f 493c
00000130: 7a44 c33c b53c 9fbc 7a56 9d3b e12a 3fbd
00000140: 4274 7dbd d908 a83d 6417 6c3d 6daf d33d
00000150: d056 953b 725a 873c 9ef2 473d 5345 5d3d
00000160: f208 36bd 2740 e9bb ec3c b3bd a328 f33c
00000170: 2e9c 9c3c 7312 8abb c523 0d3d 0df1 ab3c
00000180: 9118 f8bc e1db dcbc 2a22 4b3d 7648 72bd
00000190: a54f 0abd 4c1b a3bc b945 7abc f491 19bd
000001a0: a691 1c3c 5660 8cbd 026b aabd de53 98bd
000001b0: c03e 09be 74e6 a3bd 57cb 83bb cec7 9fbd
000001c0: cad3 b7bd b183 49bd 0057 24bd 62b5 fabd
000001d0: e6fc d1bd 1b8b 42bd c6d7 d0bc c961 2dbc
000001e0: 7c8b adbd 2844 623d 9964 513d 27d7 4dbd
000001f0: e601 05bd d061 ac3c d010 14be 57b9 12be
00000200: 26e0 27bd e95c 04be b314 e63d 09a5 51bc
00000210: e8d5 85bd f6a9 8f3c 27ca 6abc 29b9 62bd
00000220: dd41 3fbd 9bfd 3cbd 14c3 f0bc 8278 c63c
00000230: d287 cc3c 4e3c 2abd faa2 4abd ac7f 32bc
00000240: 7b21 8cbd 3245 273d f226 a1ba dc88 133b
00000250: 3abc 93bd ada9 9f3c 3583 b03d 8041 133d
00000260: 5977 023d 9e22 20bd bbdc 9bb9 4314 ed3b
00000270: 9add 12be 4700 d4bd bbeb deba 332f d5bd
00000280: 093f dbbd bc21 21be 27ec 6abd 81f2 d6bd
00000290: e29c bbbd 24da 733d 6e33 b23d 585b 0b3e
000002a0: 81d3 60bd 49c0 1d3d 5167 ef3c aedf 8dbd
000002b0: 4542 82bc 92eb d6bb dde5 27bd 0dfe 503d
000002c0: ba88 6dbd 0502 51bd df78 eebc 48b9 a4bd
000002d0: 3145 57bc 7a90 913b 5ec7 f8bc 5c0f 80bc
000002e0: 7d60 8e3b b75a 173d 15ae 64bd c0bb 2bbd
000002f0: acf5 373d 9857 2a3e 9246 843e 3edc db3e
00000300: 62f1 c8bd c22a cebd b63c a83c 7e72 883d
00000310: 690c 09bd 9a4a fdbb 5e96 db3d d2b5 eb3b
00000320: eda7 ad3c 1911 d23c 483b a03d cadb 503d
00000330: 095c 56bd dcc0 1b3c e9a2 c3bd d31f 043c
00000340: 8eb6 7bbd 20bf 63bc 8519 323c f156 59bc
00000350: 9dc2 77bd 1fe6 d6bc 9205 f1bd c07b 0bbe
00000360: 77f1 933c 887c 8e3d b586 303d 663e 783c
00000370: 201b 4f3c d575 a63d 9fb5 643d 23f3 2e3d
00000380: 1741 39bc f7b4 c1bd 29c4 a0bd ce68 b1bd
00000390: 6746 b83c 2e2a d6bd 287d 03bd b0ea dd3c
000003a0: 4532 70bd 3ad5 cbbd 6c6e 05bc e0d6 df3d
000003b0: 8f44 cd3d b344 eabd a7a1 663d 90a7 113a
000003c0: 0870 1fbe 1fd0 903b bcaf 83bd 5fee 72bd
000003d0: 4fdf 76bc 7437 13bc ce49 083d d82b e9bc
000003e0: ecc9 5d3c 3bbc 25bc 24a0 6ebd a8c3 a5bd
000003f0: 55df 543c e1f4 743c 5d3a 0dbe be99 b13d
-0.01916112 -0.036781035 0.0004260826 0.018489065 0.077276915 0.07565133 0.07958933 -0.03469287
0.04998418 0.009633677 -0.04404314 0.002602966 -0.023059666 -0.038718674 -0.05707134 0.0036249422
0.03169933 0.01009844 0.038495675 -0.08278452 -0.14333469 0.0831693 -0.06173934 -0.0012641898
-0.064259216 0.0014417314 -0.0621036 0.011535357 0.01835688 -0.16391164 -0.087893575 0.3262652
-0.1115295 -0.0922624 0.32341817 -0.082494624 -0.07086702 -0.03835797 -0.014433554 -0.070974454
-0.021121796 0.024856612 -0.04782473 -0.021042468 -0.1137191 -0.03644633 -0.060753904 -0.02174032
-0.10632685 -0.019921793 -0.045831338 -0.092623584 -0.092191994 -0.028530879 -0.025405983 -0.035347037
-0.005323544 -0.029986031 0.00048403817 -0.049039353 -0.09585118 -0.044124052 0.019790554 0.0011597384
-0.01937775 0.002167586 -0.054601863 -0.07001466 -0.054923963 0.021462988 0.0038378781 -0.023210097
-0.036142804 -0.014337659 0.07629407 0.0122756185 0.023836363 -0.019438127 0.0048015686 -0.046671752
-0.06187845 0.082048126 0.057639495 0.10336194 0.004557468 0.01652262 0.048815362 0.05402119
-0.044442125 -0.0071182433 -0.08751854 0.029682463 0.019117441 -0.004213625 0.03445794 0.020988965
-0.030285152 -0.026960315 0.04959313 -0.059151135 -0.03376736 -0.019910477 -0.015275412 -0.037492707
0.00955621 -0.06854312 -0.08321191 -0.074378714 -0.13402843 -0.0800294 -0.0040220427 -0.078017816
-0.089759424 -0.049197856 -0.040122032 -0.12241627 -0.10253315 -0.047495943 -0.025493514 -0.010582396
-0.0847387 0.05524078 0.051121328 -0.050254013 -0.032472514 0.021042734 -0.14459538 -0.14328514
-0.04098525 -0.12926067 0.11234417 -0.012795695 -0.0653494 0.017537098 -0.014330423 -0.055352364
-0.04669367 -0.046140295 -0.029389895 0.024227384 0.024967108 -0.041561417 -0.049471833 -0.010894697
-0.068423234 0.040837474 -0.0012294932 0.0022511994 -0.07213636 0.019490087 0.08618776 0.035951138
0.0318521 -0.039095514 -0.0002972836 0.0072350814 -0.14342347 -0.103516154 -0.0017007509 -0.10409393
-0.107053824 -0.15735525 -0.05735412 -0.10495473 -0.091607824 0.059534207 0.08701216 0.13609064
-0.054889206 0.038513456 0.02922407 -0.06927429 -0.01590074 -0.006558844 -0.0409907 0.05102353
-0.05799172 -0.051027317 -0.02911037 -0.08043152 -0.013139055 0.004442272 -0.030368503 -0.015632324
0.0043449984 0.036951747 -0.05583008 -0.0419271 0.044912025 0.16634977 0.2583509 0.4294147
-0.09811665 -0.10066749 0.020536762 0.06662463 -0.0334591 -0.0077298405 0.1072204 0.0071933055
0.021198237 0.025642918 0.07823807 0.050990857 -0.052333865 0.0095064305 -0.09552557 0.008064228
-0.061453395 -0.013900548 0.010870342 -0.013265357 -0.060488332 -0.026232777 -0.117686406 -0.13621426
0.018059475 0.06957346 0.043097217 0.015151596 0.012640744 0.081279434 0.05583727 0.042712342
-0.0113070225 -0.094583444 -0.078499146 -0.08662568 0.022494508 -0.10457264 -0.03210178 0.027089447
-0.05864169 -0.09952779 -0.008144002 0.10929656 0.10022842 -0.114388846 0.056306507 0.000555628
-0.1557008 0.004419341 -0.06430003 -0.05930936 -0.015067889 -0.008985389 0.03327351 -0.02846329
0.013536911 -0.010115678 -0.05825819 -0.08093959 0.0129927 0.014950962 -0.13791795 0.08671902

3.bias f4 [64]
00000000: db2c 8fbe 0e22 2fbf c00e d63d 43dc 833e
00000010: 51d6 3ebe c8ee 0e3e 47fb 8b3e 1f7f 30bf
00000020: b6be 433e 37c9 01be 7bcd 303e a8cb ea3d
00000030: d8e3 98bd e7f5 15bd 12bc 893d e66c 7e3e
00000040: a9e2 fcbd 291c 35be 8b5e 1d3f c998 c83b
00000050: 6c63 a13d ea51 d83b e635 753f 3510 20be
00000060: 50a0 e13e ff2b 1ebf 386f 063f ba40 d1be
00000070: 8f0f e6be e6f5 353f 5577 54bf ca3b 5c3e
00000080: 1dc5 6dbd 918c d93d 91b6 b2bd 429e 9e3c
00000090: 68c3 cd3d 1812 2cbf 5bbe b33e 7f6f c3bd
000000a0: 579c b5be d9a6 f03d 3724 02be f55c 66be
000000b0: 9a1c dbbe 05a1 4fbe 3d01 41bf 4797 32be
000000c0: 470c bcbe 3c16 a5be 79fa 0cbd d1cd 59be
000000d0: bfb3 853e a8cb 1bbe 8e66 0d3d 1ea7 973d
000000e0: 2540 60be 41b8 e2bd 4dd5 163f bc32 efbe
000000f0: 62b8 283e 364e 973e adeb 53be 7a71 0dbf
-0.2796391 -0.6841134 0.10452032 0.25753984 -0.18636443 0.13958275 0.27340147 -0.6894397
0.19115719 -0.12674414 0.17265885 0.114646256 -0.07465333 -0.036611464 0.06725325 0.24846229
-0.123479195 -0.17686523 0.61472386 0.006121729 0.07880291 0.006601562 0.9578537 -0.15631182
0.4406762 -0.6178588 0.52513456 -0.40869695 -0.44933745 0.71078336 -0.82994586 0.21507183
-0.05804931 0.10622514 -0.08726228 0.019362573 0.100470364 -0.6721511 0.35106167 -0.095427506
-0.3547084 0.11750574 -0.12709127 -0.22496398 -0.4279526 -0.20276268 -0.75392514 -0.1744052
-0.36728117 -0.32243526 -0.034418557 -0.21269919 0.26113698 -0.15214407 0.034521632 0.07404922
-0.21899469 -0.110703 0.5891922 -0.46718395 0.16476586 0.29551858 -0.20695372 -0.55251276

6.weight f4 [128, 64, 3, 3]
00000000: 37df 6fbc f786 bfbc 3a5e b4bd 2aa4 25bc
00000010: 58e8 24bd f3a8 d63c f32f e0bc 9e38 0abd
00000020: 68d0 213d 1535 533e 278d ddbd 3ca9 d9bd
00000030: 95d8 58bc a2b0 1cbe 639f 033e f555 92bd
00000040: 2604 243e 2be1 9cbd a7d3 06be 3563 bc3d
00000050: 2bd7 413e ea48 cdbd eadd d4bb d5bc 423e
00000060: d45e 42be 371f a3bd f207 8abd 983d 88bd
00000070: 9e65 1e3b 8edf ad3c 464d 71bd 3f3e c53c
00000080: fdab d73d b04d ab3c 77ff 1b3d 86b4 33bd
00000090: 37de 96bd af8e 9e3d c77f 493d ff08 1dbd
000000a0: e2f2 30bd c573 473c 079a 06bd 102d 3fbd
000000b0: cce5 abbc 2fbb 8bbd 648f 163d 7873 36be
000000c0: 8e26 e73c 5c25 a6bd eba1 18be ec49 363e
000000d0: b29c 723d afaa 17be 734f 90bd 97a8 db3c
000000e0: 34f5 a63c 0cd0 243d 2792 4db9 c747 87bc
000000f0: f58c b2bc b05e b9bd 8b76 aabc df90 98bd
00000100: a51a 90bd a13d 90bd 3b29 b23b 362f e93c
00000110: f81d 2b3e fe46 1e3d fa42 df3c 4d67 f33d
00000120: ea7d cebd d798 e3bd bcda 433d d94d 86bb
00000130: 6bda b7bd 5f66 8bbd 4af5 2e3b c854 3ebd
00000140: 1a62 1ebd 59cc 8bbc 0576 073c dfa2 e5bc
00000150: ecd5 52bd 21e0 d0ba 0639 74bd b7d5 9b3d
00000160: 33af 12bd 0c63 f7bc b7aa b7bd 4c84 53bd
00000170: 0278 123d 5944 d2bd 1562 f9bc e1a4 443d
00000180: 55f2 c43d 6dd9 953d 6424 febd cea5 a8bd
00000190: 6cb7 d13c cb2f cd3c de5e 25bd fe07 aa3d
000001a0: 3ce7 07bd 7cb5 d6bd 205c 163d f14b 003c
000001b0: 0199 f6bd 4332 09bb 2dba 14bc 0a52 38bd
000001c0: 5817 2bbd 880f 273c 2f05 63bc b166 88bd
000001d0: 9c95 6fbc e100 89bd 0ca6 203d 4e9a 073e
000001e0: 46e6 08be fc0b 17be 344a b73d ea3e acbc
000001f0: 204a 1ebe 21c6 b93d 376a bebd 194c 863c
00000200: 485b a23d 505d 0dbd c93a a6bd cae8 af3c
00000210: c41e 0fbe 3162 fbbb 3b53 cebb e1f2 a43c
00000220: 2abe c5bd 09bf 0b3d f25e b63d 56c8 04bd
00000230: a619 963c 9ae6 353e 40ff 493c 60d4 26be
00000240: 9155 9fbd 096d 6abe 81a0 1e3c 4d4f 1fbe
00000250: 0369 2abe 8ef9 e53c 9136 913d 84a2 cdbd
00000260: bce8 123e 82d2 71bd 55a5 2fbd 4e8b 97bb
00000270: 29d0 7a3c 283e abbc e1bc 96bd 2cdc cc3d
00000280: 39d2 9abc 9db7 56bd 2ffd f8ba 1930 8f3b
00000290: e1a1 52bd 268e 8cbd 0b76 863d e146 97bd
000002a0: 22c4 413d 2041 b93d adeb 583c 4870 11bd
000002b0: ce6a 4e3d ad82 803d df3f b4bd dc38 bfbc
000002c0: 0486 fc3d fad9 f2bd f28e 87bd 4264 0c3d
000002d0: d825 b9bc d33e 373d c9e6 d0bc ef1b e03c
000002e0: cfea aebd 8686 193e d859 9fbd 9ba1 c3bd
000002f0: 0f97 84bd 1857 5a3d 801b a93b 115b aabc
00000300: 973d 1dbd 95e1 633b 7f97 253e d25f 693d
00000310: e158 19bc b9d0 883c b480 a73d 3e35 d43c
00000320: 8757 9fbd 4e87 ebbc a739 9f3d 74d8 b43d
00000330: 88ec 48bd 7197 7f3d 0032 223d a7e5 a63d
00000340: ef55 0d3d 0d16 e6bc b250 e9bc 817e de3c
00000350: 5c5a 3a3d be63 4bbd 72d3 9cbd 99be 0b3e
00000360: 693d 253e acf0 80bc 49c0 e6bd 4a48 163e
00000370: 1b8a 03bc 65d9 83bd 06f5 9f3d 27b1 2dbc
00000380: edce b1bd badc b7bd dfd1 b2bb 5471 de3c
00000390: 7bc8 853d 2cee 65bd 7c20 83bd eaf2 8d3d
000003a0: 8aab adbd 1e16 89bd 31a4 903d 05e9 d3bd
000003b0: 0c2f 54bb 966a 56bd 2152 7ebb be23 4a3d
000003c0: ef66 8cbb 2a7f 06bd 2318 933c 7357 abbb
000003d0: 76b6 58bd 8f35 2dbd 8d4d 963d 48f8 693a
000003e0: ec1f b0bc 650d 973d f62d 9d3d 2285 993c
000003f0: 9a2b 1c3a 32d5 c4bd f672 493d 6bd3 2ebd
-0.014640621 -0.023379786 -0.08807035 -0.010109941 -0.040260643 0.026203608 -0.027366614 -0.0337454
0.039505392 0.20625718 -0.10817938 -0.10627982 -0.013235231 -0.15301755 0.1285377 -0.07145301
0.16017208 -0.07660135 -0.13166676 0.0919861 0.18929736 -0.10023673 -0.006496181 0.19017346
-0.18981487 -0.07964938 -0.06739797 -0.06652373 0.0024169455 0.021224763 -0.058911584 0.024077533
0.10530851 0.020911068 0.038085427 -0.043873332 -0.07366603 0.077420585 0.049194124 -0.038338657
-0.04320038 0.012173598 -0.032861736 -0.046673834 -0.0209836 -0.06822812 0.03675784 -0.17817485
0.028216626 -0.081125945 -0.14905517 0.17801636 0.059231468 -0.14811204 -0.07046404 0.026813788
0.020380594 0.04023747 -0.0001960477 -0.016513718 -0.02179573 -0.09051263 -0.020808479 -0.07449507
-0.07036332 -0.07043005 0.005437044 0.028464895 0.16710651 0.038641922 0.027253617 0.118849374
-0.1008261 -0.11113136 0.047816023 -0.0040986356 -0.08977207 -0.06806635 0.0026696497 -0.046467572
-0.038667776 -0.017065214 0.008267884 -0.028031765 -0.051473543 -0.0015935936 -0.059624694 0.07609122
-0.035811614 -0.030198596 -0.08968108 -0.05163984 0.03575898 -0.102669425 -0.030442277 0.048008803
0.09616534 0.07316861 -0.12409285 -0.0823475 0.025600158 0.025047204 -0.040373676 0.08302306
-0.033179507 -0.10483834 0.03670895 0.007830606 -0.12040902 -0.00209345 -0.009077591 -0.045000114
-0.04177031 0.010196574 -0.013856216 -0.06660212 -0.014623072 -0.06689621 0.039220855 0.13242456
-0.13369092 -0.14750665 0.089497 -0.021026094 -0.15457964 0.09070993 -0.092976026 0.016393708
0.07927567 -0.034512818 -0.08116681 0.021473307 -0.1397658 -0.0076716174 -0.006296543 0.020135345
-0.096554115 0.034117732 0.08904828 -0.032417618 0.018322777 0.17763749 0.012328923 -0.16291952
-0.07779992 -0.22893156 0.009681822 -0.15557595 -0.16641621 0.028073099 0.07090486 -0.10040763
0.14346594 -0.059038647 -0.042882282 -0.0046247607 0.015308418 -0.020903662 -0.073602445 0.10002932
-0.01889907 -0.0524212 -0.0018996353 0.0043697474 -0.05142391 -0.0686305 0.06565484 -0.07386566
0.047306187 0.09045625 0.013239783 -0.03550747 0.050394826 0.062749244 -0.08801245 -0.023342542
0.12330249 -0.11857982 -0.066190615 0.0342753 -0.022601053 0.04473765 -0.025500672 0.02735707
-0.0854088 0.14992723 -0.07780808 -0.09552308 -0.06474125 0.053305715 0.005160749 -0.020795377
-0.038388815 0.0034771909 0.16171072 0.056976147 -0.009359569 0.01670109 0.08178845 0.025904294
-0.077803664 -0.028751042 0.07774668 0.08830348 -0.0490537 0.062400285 0.039598465 0.081492715
0.03450578 -0.028086687 -0.028480861 0.027159931 0.04549633 -0.04965567 -0.076575175 0.13646926
0.16136707 -0.015739761 -0.11267144 0.14676014 -0.008028532 -0.06437949 0.078104064 -0.010601318
-0.08682046 -0.08977647 -0.0054571475 0.027153648 0.06532379 -0.05613534 -0.0640268 0.06931098
-0.08479984 -0.06693672 0.07062567 -0.10347179 -0.0032376675 -0.052347742 -0.0038806277 0.049350493
-0.0042847316 -0.032836117 0.017955845 -0.0052289306 -0.052908383 -0.042287406 0.073390104 0.00089252414
-0.021499597 0.07375602 0.07674782 0.01874024 0.0005957425 -0.09610976 0.0491819 -0.042682093

6.bias f4 [128]
00000000: 6744 0cbd 0cf3 5dbd 5d7c 58ba 0073 e7bc
00000010: 43dd 16bd 3cfc cb3e d0f0 573d e8f1 1a3d
00000020: 8fde 06be 9c99 9f3c 4b45 94be c7d1 47be
00000030: 4a5a 483e fb5e cd3d c315 57bd f2e9 4bbe
00000040: af8a 17be 6721 e9bc e151 e03d 3fb1 2bbe
00000050: f5f5 00bd 48df 85be c72f 853e 8440 4cbd
00000060: 147b 96bd 767a 843d 5d5f ba3d bb32 0d3e
00000070: 4c12 b0bd 6328 cc3e 930d e7bd b2e0 5cbe
00000080: 9f1b 6c3e 59f7 d6bc c03f a13e 4ac6 b63e
00000090: c9ba bd3e 9a48 fb3e 5ce4 2fbe 8f08 453e
000000a0: 3666 4a3e b81e 0c3e 518c 603b 0873 963c
000000b0: 60e2 56bd 9f08 91bd b3b5 a43e 56af b83d
000000c0: fbca b13d 7e5c 473d 558a b9bc 7626 33be
000000d0: 35c7 4abe 9c47 94bd f223 9d3d 2173 22be
000000e0: 4172 83be c3e9 fc3d 9dae a53e e5fb 8bbe
000000f0: 9edc baba 6e0b f93c bf8b 8e3e dd14 82be
00000100: 4170 a2be 03c5 9d3b ab3b 9b3c 480c 8ebe
00000110: dbd5 873e 88fb d33e 1955 e03d 912d 093e
00000120: e924 86bd 13e2 b0be e0a0 ee3d b1c7 e0bc
00000130: 51c2 2a3d 791d bbbe 7a99 033f b548 54bd
00000140: 0639 3a3e 3f64 813e 4af7 573e c27c 3dbd
00000150: 7cf8 a8bb b590 3dbc 771b 9abe ca2e 91bb
00000160: 79a0 293e 068e b7bc 4228 05be a217 19be
00000170: dc31 543e fe76 f43c 12f0 54be 2ec9 43bc
00000180: 7471 c73e 71c2 4abe 5b7d 3b3e e28a 913e
00000190: b9cc 033e 3161 0bbe 2a3a 96be b63b 783d
000001a0: fee1 ce3e 5ece 023e ff92 81bb 8fe8 523e
000001b0: d56e 67be 47b6 2d3e 840b f63e 5d02 a2bd
000001c0: 7dff 1dbe 3648 c5bd a924 aebd 83e5 b73d
000001d0: be83 1b3d 9622 09be 9058 583e 1a55 11bd
000001e0: daca 12bd 5021 6bbe 9f6e 21be 40b8 a43d
000001f0: 1289 9bbd a6dc f8bd 558b e3be 41b0 d7bc
-0.03424492 -0.054186866 -0.00082582777 -0.028253078 -0.036832105 0.39840877 0.05271989 0.037828356
-0.13170837 0.019482426 -0.28959116 -0.19513617 0.19565693 0.10027882 -0.052510988 -0.19913462
-0.14798997 -0.02845831 0.10953117 -0.16766833 -0.031484563 -0.26146913 0.26013014 -0.049866214
-0.07347694 0.0646867 0.0910022 0.13788883 -0.0859724 0.39874563 -0.11281886 -0.2157009
0.23057412 -0.026240991 0.3149395 0.35698158 0.37056568 0.49078828 -0.17176956 0.19241546
0.19765553 0.13683593 0.0034263323 0.018365398 -0.05246198 -0.070817225 0.32169876 0.09017818
0.086812936 0.04867219 -0.02264897 -0.1749514 -0.19802554 -0.07240221 0.07672872 -0.1586423
-0.25673106 0.12349274 0.32359782 -0.27340618 -0.0014256423 0.030400958 0.27840993 -0.25406542
-0.31726268 0.0048147454 0.01894935 -0.27743745 0.26530346 0.4140284 0.10953731 0.13396288
-0.06550009 -0.3454748 0.11651778 -0.02743897 0.04168922 -0.36545923 0.5140606 -0.05182715
0.18185815 0.25271794 0.21090427 -0.046261556 -0.005156575 -0.011570145 -0.3009908 -0.0044306265
0.16565122 -0.02240659 -0.13003638 -0.14950421 0.20722145 0.029841896 -0.20794705 -0.01194982
0.38953745 -0.19800736 0.18309538 0.28426272 0.12871064 -0.13611294 -0.2934125 0.06060382
0.40406793 0.12774035 -0.003954291 0.20596527 -0.22600873 0.16964065 0.4805566 -0.07910607
-0.15429492 -0.09632914 -0.08503086 0.08979323 0.037967436 -0.133921 0.21127534 -0.03548155
-0.035837986 -0.22961926 -0.15764855 0.080429554 -0.075945035 -0.1215146 -0.4444224 -0.026329162

10.weight f4 [128, 512]
00000000: f7c1 1f3d 43ab 3bbd b409 833d 657a d03a
00000010: 9fa9 413d 0fa6 74bc 9b57 b3bc 2c37 283d
00000020: 54bc efbc b7bc 10bd 9dd6 70bd 80a9 e3bc
00000030: 2fbd 273b 69aa 0c3d 215a f73d e92e 913d
00000040: 40b1 9d3d 63b2 81bc 0cc5 9e3d 2d2a 18bd
00000050: 8780 333d 67ad 6dbc 2b44 28bc c811 443d
00000060: 4b6c d63d 2952 bf3c 3f58 1c3d d602 67bc
00000070: fc1f 163c 1c11 413d 7a69 2c3d a216 a0bc
00000080: 3202 25bd 37a6 233c 5e61 93bd 7f3c a93b
00000090: 661e 283d d727 1a3c 3af1 aabd 3794 943d
000000a0: bd65 84bc 4b2f 6cbb 06c3 b0bc 2ae9 c3bb
000000b0: a685 7abd 8660 8439 7f5c 783c ecc7 df3c
000000c0: f9fb 7cbd f8a6 5e3d c7ba abbd 2494 1dbd
000000d0: ab28 3fbd e903 0abb f4b8 66bd ad40 a5bd
000000e0: 97d8 493c 9813 0abd 198f c9bd da8a 61bd
000000f0: d53a 383d b9ca 1abd c745 02bd ed54 8c3d
00000100: 5aca 783c c18a cd3c ca96 81bd e10f e03b
00000110: 747c a7bc b4ce dc3b 70d5 35bd b690 8bbc
00000120: 5b28 2c3c de3f 983c ffea 3fbd a50c 403d
00000130: e5c2 7e3c 9232 d8bd 9c00 a7bc 4252 5abd
00000140: 1715 25bd f0a4 9abc 2c40 7e3d 27f7 68bc
00000150: 7cbf c0bc fdd5 eebc 7764 c7bc f91e 173d
00000160: cff7 14bd d54c 0d3d f62d 063d 1514 2b3d
00000170: 6f11 02bd 5da3 4bbb ad1f 363d e746 27bd
00000180: 9f9d 5a3d 7a91 0fbb 48cc 54bd 6a5a fa3c
00000190: 0786 593c 6001 94bd 8e63 d9bc 208a 6abd
000001a0: e16e 46bd fc42 eabc c747 ca3c 2d77 bfbd
000001b0: f8f9 94bc 4e56 ab3c e64d 7ebc 8abb 1c3d
000001c0: c20d 54bd 9451 0f3d d89a 023d d740 68bc
000001d0: 058a edbc 9ef7 41bc 78de 963c e505 30bd
000001e0: 8e65 7abc 2e93 d3ba bf36 fabc c20a 1a3d
000001f0: e0d0 55bd 1c1a d83c d14a 083c 51e9 c0bd
00000200: f551 f6bc f19b e5bc 01ec 0c3d ebcb 43bd
00000210: 10c6 3ebc 40f2 163c 1b41 8bbd 69e8 16bd
00000220: be78 983b d05d 6e3d dca0 8bbc 4bb9 953d
00000230: 9b57 00bd 5a29 013d 1b32 8ebd 2102 0fbc
00000240: 4752 d3bc 1a65 81ba c782 27bd c34d 26bd
00000250: 614b cf3c 07f4 e83c 93b5 efbb 9e45 c63c
00000260: 97c7 97bc 048b 263d 6cd9 403b da29 f03c
00000270: 2acd 6b3d 84f8 c43c 6b45 c3bc 9c5d aa3c
00000280: 31ef b0bc 868b 98bd b161 dcbc 399f 19bd
00000290: 54cf 3abd 54f4 30bd 3df1 b33d 5f3b 49bc
000002a0: c2ca 9dbb f156 afbc a232 23bd 87c4 ec3c
000002b0: f709 883b 1644 ab3d 87f1 9abd 15f8 803d
000002c0: b03d b63c c3e1 e73c 97a4 443c 3751 623d
000002d0: d818 4dbc 5f9d a43b a7fb 0e3d 53bc 3abc
000002e0: 0dd1 62bb cfe0 943a cb03 74bc 67e5 003d
000002f0: b2b8 e4bc 8196 42bd 8ce8 a6b8 8733 133d
00000300: 3f4a 30bd 6ff7 0a3d d3c5 f8bc 9fc7 4a3d
00000310: f50b e4bb 2a1e 2cbd 3684 9d3c 793f 94bb
00000320: dbaa 32bc d0b1 e3bb 4ce2 ab3c 86df 273d
00000330: 396b 3ebd bb67 a73c dd7f edbb 5708 723d
00000340: 7475 c33c 098f 97bc 898d ea3c 84c6 853d
00000350: 0886 3bbd f21b 4fbc 1948 8c3d 54c6 30bc
00000360: 68b8 963c 58d7 af39 a149 3abd 486d 7cbd
00000370: 63f8 37bd f15e 36bb 1032 33bd 032a 563c
00000380: 8c8d a639 8b4f 4c3c 9034 18bd 7fd4 de3d
00000390: 1237 03bc 96f9 01bd 6bd0 42bd 7eeb e5bc
000003a0: a1b1 61bd 9f88 dc3c 1601 67bd 4f25 243a
000003b0: cae5 1bbd f7e2 963b 2ac6 d1bc 9769 153b
000003c0: 6c61 e13c 569c 63bb a661 47bd 6250 973d
000003d0: 2019 25bd f5f1 25bd 61b1 e13a a51b 863c
000003e0: a00f 133b dec0 cabc a310 8abc 3979 0d3d
000003f0: ba9c c7bc 3a08 1f3c 0cc7 ddbb ce91 23bd
0.03900334 -0.045817625 0.06398335 0.0015905617 0.047280904 -0.01493217 -0.02189236 0.04106824
-0.029264607 -0.035336222 -0.05879842 -0.027790785 0.002559494 0.034342203 0.120777376 0.070890255
0.076998234 -0.015832132 0.077524275 -0.037149597 0.043823745 -0.014506674 -0.010270159 0.04786852
0.10469874 0.023354607 0.038170096 -0.014099797 0.009162899 0.047135457 0.042092778 -0.019542042
-0.040285297 0.009988359 -0.07196306 0.0051646824 0.041044615 0.009408913 -0.083467916 0.07254832
-0.016161794 -0.003603893 -0.02157737 -0.005978723 -0.061162613 0.00025248918 0.015158772 0.02731701
-0.061763737 0.054358453 -0.08385234 -0.038471356 -0.046669643 -0.002105946 -0.05632873 -0.080689766
0.012319705 -0.033710092 -0.09841747 -0.05506406 0.04497798 -0.037790988 -0.031804826 0.06852136
0.015184963 0.025090577 -0.06327589 0.0068378304 -0.020445086 0.006738508 -0.044393003 -0.017036777
0.010507668 0.018585142 -0.04685497 0.04688706 0.015549396 -0.105565205 -0.020386033 -0.053301103
-0.040303316 -0.018877476 0.062072918 -0.014219082 -0.023528807 -0.029154772 -0.024339898 0.036894772
-0.03636914 0.0344971 0.032758676 0.0417672 -0.031754907 -0.0031072714 0.044463802 -0.040839102
0.053372975 -0.002190678 -0.05195263 0.03056069 0.0132765835 -0.07226825 -0.02653673 -0.057260633
-0.048445586 -0.028596394 0.02469243 -0.09348903 -0.0181856 0.020915177 -0.015521502 0.03826479
-0.051770933 0.03498991 0.03188595 -0.014175615 -0.028996477 -0.011838822 0.018416628 -0.04297437
-0.015283002 -0.0016141885 -0.030543683 0.037607916 -0.05220115 0.026379637 0.008318619 -0.094195016
-0.030068377 -0.02802846 0.03440476 -0.047801893 -0.0116439015 0.00921303 -0.06799527 -0.036842737
0.0046530655 0.058194935 -0.017044477 0.073107325 -0.031333547 0.031533577 -0.069431506 -0.008728535
-0.025796069 -0.000987205 -0.040896203 -0.040601503 0.025304498 0.028436674 -0.0073153465 0.024203118
-0.018527789 0.04065992 0.0029426469 0.029316831 0.057568707 0.024044283 -0.023836812 0.02079659
-0.02159843 -0.07448487 -0.026902052 -0.037505362 -0.04560788 -0.04320176 0.08786247 -0.012282222
-0.0048154304 -0.021403762 -0.03984321 0.028902305 0.0041515785 0.08362596 -0.07565599 0.06297318
0.022246212 0.028305894 0.012002132 0.055253234 -0.01251813 0.005023643 0.034907963 -0.011397439
-0.0034609467 0.0011358502 -0.014893482 0.031468775 -0.0279201 -0.047506813 -7.958812e-05 0.035937812
-0.043039557 0.033927377 -0.030367767 0.04950678 -0.006959433 -0.042020954 0.019228082 -0.004524168
-0.010904993 -0.006948687 0.02098193 0.040984653 -0.046488974 0.020435205 -0.0072479085 0.059089985
0.023859717 -0.018500822 0.028631942 0.065320045 -0.04578212 -0.01264094 0.06849689 -0.010789473
0.018398479 0.00033539045 -0.045480374 -0.061627656 -0.044914614 -0.0027827586 -0.043748915 0.01307154
0.00031767448 0.012470136 -0.037159503 0.10880374 -0.008008735 -0.031732164 -0.047562044 -0.028066393
-0.05510104 0.026920615 -0.05639752 0.0006261663 -0.03806094 0.004604693 -0.025607187 0.0022798532
0.027512275 -0.0034730635 -0.04867711 0.07388379 -0.040307164 -0.04051395 0.0017219001 0.016370604
0.0022439733 -0.02475017 -0.016853636 0.034539435 -0.024366725 0.009706551 -0.006768113 -0.039933972

10.bias f4 [128]
00000000: 58ba a8bc 5890 d1bd 9dd5 303e 9b46 1cbd
00000010: 049e a13d 0700 173c 221e 283e e776 a43e
00000020: 643b b7bc be88 323d f4d3 43bd 291c 02be
00000030: 14cc 583e 08da 003d aa45 b4bd 7dc8 9f3d
00000040: 541b fbbc 6b7a b53c 0328 abbc 224d f73b
00000050: f888 d638 51ff 8cbd 0685 223c e17a cdbd
00000060: 1af0 d63d 428a 433d f832 823e af6e 413d
00000070: 7829 56be a270 633e d555 1e3d f6a7 99bc
00000080: 6721 0dbd bb75 a9bd c598 19bd 5c2a 833d
00000090: 7062 0b3f e3dc a43d db95 92bd 3e19 083c
000000a0: e0b0 743e ec1c 9f3c af2f d4bd 88aa 383d
000000b0: f70d fabc 716f 45bd f56f 96bc ac73 8c3c
000000c0: 0847 e53c 1875 283e be1b 573e 3197 5e3e
000000d0: 26f4 d0bd ece4 0b3e 1c7c 40bd 51f9 d8ba
000000e0: 5c6c 103c 2b30 733e 966a 6b3d 59a9 45bd
000000f0: b3cb cb3d 38fd 6dbd 57c3 9d3e c0eb eabd
00000100: f10e e73d c4e6 a93e 8234 7b3e edcb cbbd
00000110: 9e45 a33d 0c0f 203d 657d 5bbd 979e 953e
00000120: 3afd bcbd aa03 953e 7a15 c33d 7f16 663e
00000130: 02e9 81bd a59b 85bd a90b 68bc c9ea bebc
00000140: ebb5 04be ce26 113e d8f0 1cbe 0b63 d83d
00000150: fb31 103e 0e3e 803b 9c26 0d3e 006a 5f3e
00000160: 545f ed3d 1944 603d fce0 d9bd fedf dc3c
00000170: 084d 8c3d 182f 35be 5c6c 35bd 18e0 57bc
00000180: 71eb 623d 6485 d9bb 2679 3d3d 98bb 44bd
00000190: cb45 a43c 51a0 67bc b026 33bd 2907 1a3e
000001a0: e854 46bd b3bf 983e 80c8 963d 7cae d43d
000001b0: 73ac 6c3e f924 903d 24bc 463d eea8 9ebd
000001c0: 0f79 b93e 1992 c53e 351d 113e 264e e03a
000001d0: 4661 253e 086f 2d3e a939 a03c 12ae 853d
000001e0: a3e5 1ebd b95d b73c 5613 233e b9c9 eebd
000001f0: 331c f8bd 2442 033e 45bc 86bd 1c1b 41bc
-0.020596668 -0.102326095 0.17268987 -0.038153272 0.07891467 0.009216315 0.16417745 0.32121965
-0.022367187 0.04358744 -0.047809556 -0.12706055 0.211716 0.03145793 -0.0880235 0.07801912
-0.03065268 0.0221531 -0.020893103 0.0075470367 0.000102298276 -0.06884635 0.009919411 -0.10033203
0.104950145 0.047739275 0.2542951 0.047224697 -0.20914257 0.22210935 0.038656075 -0.018756848
-0.034455683 -0.082744084 -0.037499208 0.06404564 0.5444708 0.08049943 -0.07157489 0.008306799
0.23895597 0.01942297 -0.103606574 0.045084506 -0.030524237 -0.048201982 -0.018363932 0.017145
0.027987972 0.16450918 0.21006677 0.21737362 -0.102028176 0.13661546 -0.04699336 -0.0016553794
0.008814897 0.23748843 0.057474695 -0.048257206 0.09950962 -0.058102816 0.30813095 -0.11470747
0.11282147 0.33183873 0.24531749 -0.09951005 0.07972263 0.03907685 -0.053586382 0.29222557
-0.09227987 0.29104358 0.09525581 0.22469519 -0.06343271 -0.065238275 -0.014162936 -0.023305314
-0.12960021 0.14174959 -0.1532625 0.10565766 0.14081566 0.0039136475 0.1378426 0.2181778
0.11590448 0.054752443 -0.106386155 0.026962277 0.0685063 -0.17693746 -0.044292793 -0.013175987
0.055400316 -0.006638216 0.046258114 -0.048030466 0.020052811 -0.0141373435 -0.043738067 0.15041794
-0.048420817 0.29833755 0.07362461 0.10384843 0.23112659 0.07038302 0.04851927 -0.077470645
0.36225173 0.38588026 0.14171298 0.0017113134 0.16150388 0.16936886 0.019558745 0.06527342
-0.038793217 0.022383558 0.15925345 -0.11659569 -0.121147536 0.128182 -0.06578878 -0.011786249

12.weight f4 [10, 128]
00000000: f08a 45be e01d 08be 8e98 b23e 8abf a73e
00000010: 91b5 593e d234 bebe 69a6 d03e 204b adbe
00000020: d632 b93d 2f96 803e 7b68 33bb 59f5 a93e
00000030: 59c8 703d dc03 493e fe1c 36be 7619 533e
00000040: 67a9 eabc e204 59be 7d8d 633d e609 043e
00000050: 46ab 8e3e d440 32be 815a 8a3e 6c02 09bc
00000060: 32a4 a33e c946 9dbe e4c0 7abc f752 1ebe
00000070: bbb7 203e 4293 453e 11b7 68be f796 843e
00000080: 7d6b 7d3d ae61 0cbd fd24 a73d f5c9 6d3e
00000090: ba5c e8be 7a35 993e 7596 89be 416c 11be
000000a0: 80b7 9dbe 8182 dd3e 5e65 8c3e e031 91be
000000b0: 7237 9f3b 027a 923d a34d 0dbe 8c18 babc
000000c0: c302 733d 93b8 383d 322c 1f3e 55c6 11be
000000d0: 96dd e93e 2752 47be 6141 5dbe 22ff 4fbe
000000e0: 3789 54be 4053 4abd 903c b23e 78c5 863d
000000f0: 1255 b63d fb6c 0bbd 8a31 af3e 31c6 aa3e
00000100: e2f9 933e 990e 023e 8418 29be 52cc 62be
00000110: 33fa 7c3e 9ecc f0be 46d9 e4be 71d5 4bbe
00000120: 2adc abbe 048f b13e 33be d43c 8344 6b3e
00000130: 4f98 213d e00b 3e3e 4e5f 143f b3b9 e73e
00000140: aae0 b1be a68b 28be 6051 b03d 1991 673e
00000150: df7b 863e 3b1c 4b3b d0fb a1bd e6b5 7dbe
00000160: 2f65 fc3d 8de4 043e 3581 c1be 2ae1 adbe
00000170: 178d 133d c2c4 b13e f3ed 9b3e 936c ff3d
00000180: ae5d 213e b5e3 f23d bf40 5dbe ffd4 c4bd
00000190: e509 963d 3846 90be e2c3 dd3e eb83 10be
000001a0: d0cf b13e 0b7c 8c3d 4c36 0abe 8649 aabe
000001b0: d973 ecbe 5c9f 67bd ecb9 953e 069c 05bf
000001c0: 8dd1 9dbe 9184 8abd 67d3 48be 2928 29bf
000001d0: f0a9 c83e 686e 223e 94f4 ca3d 8c63 6abe
000001e0: fb08 eebe 56fd 5a3e f0c3 08bf dc91 4bbe
000001f0: d452 873d 77d4 0b3e 0108 94be 3bb9 ef3c
00000200: 6f85 873e 907c ae3e e08a 95be 0352 d1be
00000210: d986 723e 14ec 9bbe b53a bdbe 9446 06bf
00000220: 114c 973e 4963 cebd 7bf6 a93d 2284 be3d
00000230: 0223 a63d ae0d 473d 7dca 933d f6b6 033c
00000240: 3d84 cc3c cf57 22be 2fcd a73e 8e64 01be
00000250: e8ca 393e 5e15 31bd a8e9 babe e69f 903d
00000260: 1d23 1e3f 1703 edbd 5470 08bd 09b0 0bbd
00000270: 2672 7e3e ef94 183c c612 f5bd 4293 92be
00000280: 2a12 443d 26a1 c83e 36f5 53be 7b25 003e
00000290: d126 c8be 6547 f53d 9135 5f3e ddba d13e
000002a0: 198e 26be 618c 70be eb39 90bd 7d98 c0be
000002b0: 213f f13d bf79 91be 0f75 85bd cb2d bcbe
000002c0: 0eb5 533e 92cc e13b 7de8 b53d 855b cbbe
000002d0: 4393 023d 09de 0f3e d28b e73d 5e6d 953e
000002e0: f820 3b3d 85b2 41be 26aa e2bd 4409 dc3d
000002f0: 2ead 75be b505 813e 89c1 3ebe 15a7 923e
00000300: 5c60 a53e df65 913e efdd b5bd 6e66 de3e
00000310: 8666 ccbe 5d87 05be 985a fb3c 7a79 a7be
00000320: 3295 04bd 3cea 03bf e819 7abd b517 b4be
00000330: 06b1 963e a4fe b8be db61 95be 0728 7ebe
00000340: 8f37 89be dc5c 163f a6d7 5c3e fa84 19be
00000350: 1e0a 553d ff39 b7bc c5f1 433d 0ed8 27be
00000360: 38f0 9f3d cad7 a83e f3e2 cdbd 9f83 b7bd
00000370: 709f 04bf 9b30 bd3e 719d 6d3d 0b68 2a3e
00000380: a856 b4bd a9d1 693e 3baf 41be 8b43 1fbe
00000390: 3157 b13e fe3c b33e 5126 0fbe bde7 4a3e
000003a0: 42b8 b93c 12d7 1cbe ceab 0e3e 6ec9 1a3c
000003b0: 8eaa eabe 0ac3 d23e 5ff2 2d3e 1e18 373e
000003c0: a8d3 8bbe ae9e fabd 60e3 05be 2e11 a23e
000003d0: 90b6 febe 7e8f bcbe e6b0 c63d 1134 79be
000003e0: 831f a73c 315d fb3d e27f 87bd dc97 ef3e
000003f0: d0dd eb3e 9b3b d53d ca4b 9a3e 1ee0 0abe
-0.19291282 -0.13292646 0.34882015 0.3276332 0.21260668 -0.37149674 0.4075196 -0.33846378
0.09042899 0.2511458 -0.0027375508 0.33194998 0.058784816 0.19630378 -0.17784497 0.20615181
-0.02864523 -0.21193269 0.055554856 0.12894401 0.27865046 -0.17407542 0.27022174 -0.008362394
0.3196121 -0.30718067 -0.015304778 -0.15461336 0.15695088 0.19294456 -0.22726084 0.25896427
0.061870087 -0.034272842 0.08161352 0.23221572 -0.45383245 0.29923612 -0.26872602 -0.14201452
-0.30804062 0.4326363 0.27421087 -0.28358364 0.0048589045 0.071521774 -0.13799147 -0.022716783
0.059328806 0.0450979 0.15544203 -0.14235814 0.4567687 -0.19464932 -0.21606971 -0.20312169
-0.20755468 -0.0493958 0.3481183 0.06580633 0.089029446 -0.03403948 0.34217483 0.33354333
0.28901583 0.12700881 -0.16513258 -0.22148255 0.24704818 -0.4703111 -0.44697016 -0.1990564
-0.3356641 0.34679425 0.0259696 0.22975354 0.039451893 0.18559217 0.57957923 0.45258865
-0.34741718 -0.16459522 0.08609271 0.22613944 0.2626638 0.0030992168 -0.079093575 -0.2477642
0.12323987 0.1297781 -0.3779389 -0.3396085 0.036023226 0.34720427 0.30454978 0.12471881
0.15758392 0.11859838 -0.2160673 -0.09610938 0.07326106 -0.28178573 0.4331351 -0.14112823
0.3472886 0.06859597 -0.13497275 -0.3325922 -0.46182135 -0.05654846 0.2924341 -0.521912
-0.30823937 -0.06763566 -0.19611894 -0.66076905 0.39192152 0.15862429 0.09909931 -0.22889537
-0.46491227 0.21385702 -0.53423977 -0.1987986 0.06607595 0.13655268 -0.28912356 0.02926313
0.2646899 0.3407941 -0.29207516 -0.40882882 0.23684253 -0.3045355 -0.36958852 -0.52451444
0.29550222 -0.10077531 0.082989655 0.09302546 0.08112146 0.04859703 0.07216356 0.008039227
0.0249654 -0.15853809 0.3277373 -0.12636015 0.18143809 -0.043233268 -0.3650639 0.07061748
0.6177233 -0.11572855 -0.03331025 -0.034103427 0.24848232 0.009312852 -0.119664714 -0.28627974
0.047868885 0.39185447 -0.2069901 0.12514298 -0.39092115 0.11976508 0.21797778 0.40962878
-0.16265143 -0.2349105 -0.07042297 -0.3761634 0.11779619 -0.28413197 -0.06516468 -0.36753687
0.20674536 0.0068908418 0.08882234 -0.3971826 0.03187872 0.14049543 0.113059655 0.29185003
0.04568574 -0.18915756 -0.110676095 0.10743955 -0.23991844 0.25199667 -0.18628515 0.28643098
0.3230008 0.28398034 -0.08880221 0.43437523 -0.3992197 -0.13039918 0.030682847 -0.32709867
-0.032368846 -0.5152929 -0.061059862 -0.35174337 0.29431933 -0.36131775 -0.2917622 -0.24819957
-0.268002 0.5873544 0.21566638 -0.14992133 0.0520116 -0.022366522 0.04783799 -0.16391012
0.0780949 0.32977134 -0.10053053 -0.089606516 -0.5180578 0.36951146 0.058011476 0.16641252
-0.08805591 0.22833885 -0.18914501 -0.1555311 0.34636834 0.3500747 -0.1397946 0.19814964
0.022670869 -0.15316418 0.13932726 0.009447439 -0.45833248 0.41164428 0.16986988 0.17880294
-0.27309918 -0.12237297 -0.13075018 0.31653732 -0.4974866 -0.36828226 0.097017094 -0.24336268
0.020400768 0.12273634 -0.066161886 0.46795547 0.46067667 0.104117595 0.30135947 -0.13562056

12.bias f4 [10]
00000000: fd8e 59be 45bd 44bf a799 93be 7181 b73e
00000010: 442d 413f 160f 013e 6f60 553e 406e 57be
00000020: 803f 9a3e dd82 78be
-0.21245952 -0.768513 -0.28828165 0.35840943 0.75459695 0.12603411 0.20837568 -0.21038151
0.30126572 -0.2426867
