checkpoint/xor3d_net_relu_hl16_acc96.pt (torch, 2075 bytes, 4 tensors)

0.weight f4 [16, 3]
000000 60 12 77 3f 7a 0b 88 40 e5 08 62 3e 98 c5 5e 40
       0.96512413 4.251401 0.22073705 3.4808102
000010 59 4b 6b c0 4c fd 77 40 14 13 65 c0 09 5d 5b 40
       -3.6764739 3.874835 -3.5792894 3.4275534
000020 87 f4 5e 40 38 49 f1 bf 5b 50 e5 3f 5d 70 dc 3f
       3.4836748 -1.885047 1.7915148 1.722179
000030 da 51 7d 40 df a0 82 40 0c 9c 8e 40 95 d5 a0 c0
       3.9581208 4.0821376 4.4565487 -5.026072
000040 1b fe a6 c0 b8 0e 9c 40 d8 fd 57 c0 bc 50 83 40
       -5.2185187 4.8767967 -3.3748684 4.1036053
000050 1b e0 70 c0 e6 b0 b6 c0 f7 27 a2 c0 96 1d be 40
       -3.7636783 -5.709094 -5.0673785 5.9411116
000060 8b 33 6d c0 ec 14 50 c0 26 aa 54 c0 45 90 a6 c0
       -3.706271 -3.251277 -3.322885 -5.205111
000070 59 2b 8f 40 b5 99 9b c0 9e 6c c2 3f ed c3 ae c0
       4.4740415 -4.862513 1.5189397 -5.4614167
000080 00 09 1f bc 8d f7 b4 3d 6c 52 40 be 35 77 b2 3e
       -0.009706736 0.08836279 -0.18781441 0.34856573
000090 9e 41 c0 c0 d0 47 c1 40 c3 dd c7 40 63 73 3a be
       -6.00801 6.040016 6.2458205 -0.18208079
0000a0 fb d8 1e 3e b6 52 20 be 1c bf 6d 40 73 0f 76 40
       0.15512459 -0.15656552 3.7147894 3.844693
0000b0 23 d3 59 40 07 3c 5a c0 a6 95 41 40 15 ae 46 40
       3.4035118 -3.4099138 3.0247588 3.1043751

0.bias f4 [16]
000000 be 6e 2c bf e0 41 52 c0 ce 03 44 c0 7a 0b b1 bf
       -0.6735648 -3.2852707 -3.0627322 -1.3831627
000010 34 ae f5 c0 45 1c 84 3f 80 24 1b 40 ed 13 84 40
       -7.677515 1.0321127 2.4241028 4.1274323
000020 c1 29 74 40 75 b9 a0 3f 1e 63 8e 40 c3 54 d6 be
       3.8150485 1.2556597 4.4495993 -0.41861543
000030 6b d9 a4 bf db c2 c9 be 1a d5 92 c0 4b 2b 0e c0
       -1.2878851 -0.39406475 -4.5885134 -2.2213924

2.weight f4 [2, 16]
000000 9a 8b be 3f d7 57 84 40 6b 49 84 40 7d 84 d7 3f
       1.4886353 4.1357226 4.133962 1.6837307
000010 d1 bb b6 c0 6b 5a ac c0 70 b5 3d 40 f0 c5 72 40
       -5.710427 -5.3860373 2.964199 3.7933311
000020 47 c9 90 40 82 e5 a4 c0 4b a7 27 c0 cd cd 47 be
       4.52457 -5.153016 -2.6195858 -0.195121
000030 bc 08 71 c0 6c 61 cf 3d cc 08 3a 40 c3 30 4b 40
       -3.766158 0.101260036 2.906787 3.1748512
000040 f4 43 c5 bf d3 76 8b c0 7c d0 72 c0 34 6b f7 bf
       -1.5411363 -4.358255 -3.7939749 -1.9329591
000050 60 d1 b6 40 e6 ae a5 40 64 2a 26 c0 6a df 79 c0
       5.7130585 5.1776 -2.5963373 -3.904261
000060 0a 20 8d c0 cc bb a0 40 7a 2a 1b 40 60 80 83 bd
       -4.410161 5.0229244 2.4244676 -0.0642097
000070 d8 ce 6f 40 fa 07 2e 3e 6e e8 3f c0 2c 70 46 c0
       3.7469997 0.1699523 -2.9985614 -3.1005964

2.bias f4 [2]
000000 16 10 d6 bf e8 90 e8 3f
       -1.6723659 1.8169222
