checkpoint/xor_net_01.pt (torch, 1631 bytes, 4 tensors)

0.weight f4 [8, 2]
0	0x3f02ba2c	0.51065326
1	0x3f0b6c98	0.54462576
2	0xbe25d8bb	-0.16195957
3	0x3f26eba6	0.6520332
4	0xbe1ea5df	-0.15492962
5	0x3e121cb0	0.14268756
6	0xbf0cab1b	-0.54948586
7	0x3ee9769a	0.45598298
8	0x3f41c592	0.75692093
9	0xbf08a47c	-0.53375983
10	0x3f1363e0	0.5757427
11	0x3daa367b	0.083111726
12	0x3f05f1e7	0.5232224
13	0x3e11c63e	0.1423578
14	0x3eba6b84	0.36410153
15	0xbd873a2a	-0.06602891

0.bias f4 [8]
0	0x3f0d8c28	0.55291986
1	0x3dd3ac02	0.10335542
2	0xbea9039c	-0.33010566
3	0x3d3e8a4a	0.0465186
4	0xbe1dd1c2	-0.15412048
5	0xbd1ddfe4	-0.038543597
6	0xbe972f8a	-0.29528457
7	0x3eea5ee0	0.4577551

2.weight f4 [2, 8]
0	0xbe8ee42a	-0.2790845
1	0xbe26e750	-0.16299176
2	0xbdcc760e	-0.09983455
3	0xbe59af13	-0.21258192
4	0x3d08ae6d	0.03336947
5	0xbeb2c9fd	-0.3491973
6	0x3ea37aef	0.31929728
7	0xbe99c52a	-0.30033237
8	0x3d90e873	0.07075586
9	0xbd966424	-0.07343319
10	0xbdeb1c77	-0.114800386
11	0x3ef8d86a	0.4860261
12	0x3eb1f779	0.3475912
13	0x3e0e985e	0.13925311
14	0xbe0a0301	-0.13477708
15	0xbde991a5	-0.114047326

2.bias f4 [2]
0	0x3dc28c3a	0.09499402
1	0xbc04ac81	-0.008097769
