checkpoint/xor_net_02.pt (torch, 1631 bytes, 4 tensors)

0.weight f4 [8, 2]
000000 1c 52 02 3f 15 eb 0a 3f ac 97 1c be a3 7b 27 3f
       0.5090654 0.54264957 -0.15292233 0.6542303
000010 df a5 1e be b0 1c 12 3e 57 95 3c bf 53 aa 3a 3f
       -0.15492962 0.14268756 -0.73665375 0.72916144
000020 ce 07 6b 3f 68 a2 43 bf e5 b0 12 3f 22 52 a6 3d
       0.91808784 -0.7641969 0.5730117 0.08121134
000030 ca 85 00 3f 77 3e 8c 3e b6 92 bb 3e ed 8c 81 bd
       0.50204146 0.27391407 0.3663537 -0.063257076

0.bias f4 [8]
000000 0b 9d 0d 3f c3 91 e2 3d 9c 03 a9 be eb 73 fa 3b
       0.55317754 0.11062958 -0.33010566 0.007643213
000010 8a c1 b5 bd ce 32 d6 bc 90 2b bf be 70 9f e9 3e
       -0.08874805 -0.026147272 -0.37337923 0.45629454

2.weight f4 [2, 8]
000000 2a e4 8e be 50 e7 26 be 0e 76 cc bd 13 af 59 be
       -0.2790845 -0.16299176 -0.09983455 -0.21258192
000010 6d ae 08 3d fd c9 b2 be ef 7a a3 3e 2a c5 99 be
       0.03336947 -0.3491973 0.31929728 -0.30033237
000020 14 a5 52 3d 03 b1 ac bd 77 1c eb bd b8 ba 64 3f
       0.051426962 -0.084322 -0.114800386 0.8934741
000030 83 25 52 3f bf ac fc 3d 72 a3 a4 be e3 15 ec bd
       0.8208849 0.12337636 -0.3215595 -0.11527612

2.bias f4 [2]
000000 3a 8c c2 3d 91 cb 24 3b
       0.09499402 0.002514575
