checkpoint/xor_net_08.pt (torch, 1631 bytes, 4 tensors)

0.weight f4 [8, 2]
0	0x3f03f420	0.5154438
1	0x3f0d37ed	0.5516346
2	0xbe1f0ca0	-0.1553216
3	0x3f24ea58	0.6442008
4	0xbe1ea5df	-0.15492962
5	0x3e121cb0	0.14268756
6	0xbfd4df96	-1.6630733
7	0x4005533d	2.0832055
8	0x4007b2f1	2.1202967
9	0xbfd92d81	-1.6967012
10	0x3f19ad51	0.60030085
11	0x3e000f7c	0.12505907
12	0x3f8227b4	1.0168366
13	0x3f818f11	1.0121785
14	0x3ead2ab2	0.33821636
15	0xbdcc2e09	-0.09969718

0.bias f4 [8]
0	0x3f091e2c	0.53561664
1	0x3e06684f	0.13125728
2	0xbea9039c	-0.33010566
3	0xbeaf2ca0	-0.34213734
4	0xbec4bc3d	-0.38424864
5	0xbd4f8f85	-0.05067398
6	0xbf81e642	-1.0148394
7	0x3f03b12d	0.51442224

2.weight f4 [2, 8]
0	0xbe8ee42a	-0.2790845
1	0xbe26e750	-0.16299176
2	0xbdcc760e	-0.09983455
3	0xbe59af13	-0.21258192
4	0x3d08ae6d	0.03336947
5	0xbeb2c9fd	-0.3491973
6	0x3ea37aef	0.31929728
7	0xbe99c52a	-0.30033237
8	0x3d6af4c9	0.05736235
9	0xbc87ccae	-0.016577091
10	0xbdeb1c77	-0.114800386
11	0x402894f1	2.6340907
12	0x40265257	2.5987756
13	0x3e77660b	0.2416002
14	0xbfd33705	-1.6501166
15	0xbe74143f	-0.23835848

2.bias f4 [2]
0	0x3dc28c3a	0.09499402
1	0xbea8fb77	-0.33004352
