checkpoint/xor_net_09.pt (torch, 1631 bytes, 4 tensors)

0.weight f4 [8, 2]
00000000: 8f8f 043f 23d1 0d3f d47a 1fbe 6acf 243f
00000010: dfa5 1ebe b01c 123e 9c25 d9bf c825 0d40
00000020: fc12 1040 5a69 dcbf 0d18 1c3f 9192 0b3e
00000030: cdba 903f 76b1 903f 6390 a83e b021 debd
0.51781553 0.5539724 -0.15574199 0.6437899 -0.15492962 0.14268756 -1.6964602 2.205431
2.2511587 -1.7219651 0.609742 0.1363013 1.1307007 1.1304157 0.32922658 -0.10846269

0.bias f4 [8]
00000000: 6856 083f 57c7 063e 9c03 a9be 6bf0 d0be
00000010: f939 ddbe df27 61bd 82c1 91bf e84e 063f
0.53256845 0.1316198 -0.33010566 -0.40808424 -0.43208292 -0.054969665 -1.1387179 0.5246415

2.weight f4 [2, 8]
00000000: 2ae4 8ebe 50e7 26be 0e76 ccbd 13af 59be
00000010: 6dae 083d fdc9 b2be ef7a a33e 2ac5 99be
00000020: 1cc2 963d 39af 9bbb 771c ebbd 83b2 3040
00000030: dfad 2e40 2884 8a3e 8602 efbf 6ade 80be
-0.2790845 -0.16299176 -0.09983455 -0.21258192 0.03336947 -0.3491973 0.31929728 -0.30033237
0.07361242 -0.004751113 -0.114800386 2.7608955 2.7293622 0.27053952 -1.8672645 -0.25169688

2.bias f4 [2]
00000000: 3a8c c23d 909d bebe
0.09499402 -0.37229586
