checkpoint/xor_net_gelu_acc86.pt (torch, 1807 bytes, 4 tensors)

0.weight f4 [8, 2]
000000 0e 96 e1 3e 6d b3 ed 3e 12 89 59 bf 4c 74 9c 3f
       0.44059795 0.46425954 -0.8497478 1.2222991
000010 33 2f 1c be b1 a7 32 3e 4e 70 0c c0 38 d9 33 40
       -0.1525238 0.17446782 -2.1943545 2.810133
000020 5b 03 47 40 87 db 21 c0 50 62 86 3f 17 64 5a bf
       3.1095798 -2.529024 1.0498753 -0.85308975
000030 45 91 eb 3f 2c f2 cc 3f 44 8a af 3e 64 60 57 be
       1.8403708 1.6011405 0.34285176 -0.21032864

0.bias f4 [8]
000000 37 93 01 3f a5 36 2e be f5 3a b3 be 29 4d 98 be
       0.5061526 -0.17013033 -0.35005918 -0.2974637
000010 f9 58 cf be 61 e7 c7 be c9 76 e3 bf 9b cd c4 3e
       -0.40497568 -0.39043716 -1.7770625 0.38438115

2.weight f4 [2, 8]
000000 d8 f6 ca 3a 4f 8a 4c bf 88 a0 71 be 24 d6 fe bf
       0.0015484942 -0.7989854 -0.23596394 -1.99091
000010 f7 b2 08 c0 bc 7e 42 bf 87 b5 c9 3f 9f fc 26 be
       -2.1359231 -0.7597463 1.5758523 -0.16307305
000020 5b a9 fb bb 84 e0 31 3f c5 ba ae 3c 58 97 ff 3f
       -0.007680101 0.6948321 0.021329293 1.9968061
000030 7a 5c 0e 40 a3 3a 32 3f 55 e4 9b bf 2d bb 7e be
       2.2243943 0.6962072 -1.2179056 -0.2487609

2.bias f4 [2]
000000 b0 71 50 3f 82 ab 50 bf
       0.81423473 -0.815117
