checkpoint/xor_net_gelu_acc100.pt (torch, 1807 bytes, 4 tensors)

0.weight f4 [8, 2]
000000 77 87 bb 3f 5c 24 be 3f e0 2e 80 40 eb 68 8f 40
       1.4650716 1.4854846 4.005722 4.4815574
000010 0d 58 62 bd 72 1c 95 3e 68 a3 8e c0 8a 83 17 41
       -0.055259753 0.29123265 -4.457447 9.469614
000020 44 b7 1a 41 ec 53 90 c0 9e fe 27 40 7f 66 9c 3f
       9.669743 -4.5102444 2.6249156 1.2218779
000030 2c bc 07 41 b7 cd 03 41 d2 44 55 bf 8d a4 b4 bf
       8.48344 8.237723 -0.83308136 -1.4112717

0.bias f4 [8]
000000 99 c7 4e bd 4e cf ac bf 94 81 0c bf 31 a4 25 c0
       -0.05048332 -1.3500764 -0.5488522 -2.5881464
000010 2d ab 29 c0 c4 46 d8 bd c2 1d 06 c1 7c c6 90 40
       -2.6510727 -0.105603725 -8.382265 4.524229

2.weight f4 [2, 8]
000000 37 59 65 bf 29 eb 62 c0 cd ea 1c bf 0f 60 b3 c0
       -0.89589256 -3.545603 -0.6129578 -5.605476
000010 c2 c3 b8 c0 a7 31 c3 bf f9 96 16 41 3d 45 34 40
       -5.773896 -1.5249528 9.411859 2.816726
000020 24 c7 63 3f a4 40 5c 40 db f0 cb 3e 52 90 b3 40
       0.8897574 3.4414454 0.39832196 5.611367
000030 7e 98 bb 40 6c 0f bb 3f d2 dc 10 c1 e1 a0 4e c0
       5.862365 1.4614081 -9.053911 -3.2285693

2.bias f4 [2]
000000 73 1c 52 40 fd 2a 52 c0
       3.2829864 -3.2838738
