checkpoint/xor_net_10.pt (torch, 1631 bytes, 4 tensors)

0.weight f4 [8, 2]
00000000: 4358 053f 8ba1 0e3f d067 1fbe c3d3 243f
00000010: dfa5 1ebe b01c 123e fcef d9bf c7c6 1440
00000020: ec18 1740 adbd ddbf 2ed3 1e3f 55f6 183e
00000030: c9bc 9f3f 90a6 9f3f 2aa1 a33e 1f92 f2bd
0.520878 0.55715245 -0.15566945 0.6438562 -0.15492962 0.14268756 -1.7026362 2.3246324
2.360896 -1.732351 0.62040985 0.14937718 1.2479488 1.2472706 0.31958896 -0.11844277

0.bias f4 [8]
00000000: 7179 073f 0b9a 063e 9c03 a9be 63da eabe
00000010: 79a5 f9be 79d4 72bd c3d0 a1bf efc7 083f
0.5291968 0.131447 -0.33010566 -0.4586974 -0.48759058 -0.05928466 -1.2641834 0.53430074

2.weight f4 [2, 8]
00000000: 2ae4 8ebe 50e7 26be 0e76 ccbd 13af 59be
00000010: 6dae 083d fdc9 b2be ef7a a33e 2ac5 99be
00000020: ea1d c13d 691c 193c 771c ebbd a38d 3740
00000030: 577a 3540 d40f 9a3e 8463 05c0 3b27 87be
-0.2790845 -0.16299176 -0.09983455 -0.21258192 0.03336947 -0.3491973 0.31929728 -0.30033237
0.09429534 0.009345152 -0.114800386 2.8680198 2.835592 0.300902 -2.084199 -0.26397118

2.bias f4 [2]
00000000: 3a8c c23d 56fe d1be
0.09499402 -0.41014355
