checkpoint/xor_net_04.pt (torch, 1631 bytes, 4 tensors)

0.weight f4 [8, 2]
0	0x3f02abcf	0.5104341
1	0x3f0bad63	0.5456144
2	0xbe1b2b5a	-0.15153256
3	0x3f264a1e	0.64956844
4	0xbe1ea5df	-0.15492962
5	0x3e121cb0	0.14268756
6	0xbf9a5f4f	-1.2060336
7	0x3faade58	1.3349104
8	0x3fb5050d	1.4142166
9	0xbfa19e5e	-1.2626455
10	0x3f13dfc6	0.57763326
11	0x3dbbcd91	0.09170068
12	0x3f172f53	0.59056586
13	0x3f0c0ad0	0.54704
14	0x3eb9231e	0.36159605
15	0xbd93aec8	-0.07211071

0.bias f4 [8]
0	0x3f0c1279	0.5471569
1	0x3df99f79	0.1218862
2	0xbea9039c	-0.33010566
3	0xbdbd4ce8	-0.09243184
4	0xbe0684bd	-0.13136573
5	0xbcffeebf	-0.031241773
6	0xbf0fac4a	-0.5612227
7	0x3ef09be6	0.4699394

2.weight f4 [2, 8]
0	0xbe8ee42a	-0.2790845
1	0xbe26e750	-0.16299176
2	0xbdcc760e	-0.09983455
3	0xbe59af13	-0.21258192
4	0x3d08ae6d	0.03336947
5	0xbeb2c9fd	-0.3491973
6	0x3ea37aef	0.31929728
7	0xbe99c52a	-0.30033237
8	0x3d3fd152	0.046830483
9	0xbd6fc189	-0.05853418
10	0xbdeb1c77	-0.114800386
11	0x3fdc7ccc	1.7225585
12	0x3fd80d60	1.6879082
13	0x3e1a7bb9	0.15086259
14	0xbf463a08	-0.774323
15	0xbe1f0a4d	-0.15531273

2.bias f4 [2]
0	0x3dc28c3a	0.09499402
1	0xbdd0102f	-0.10159337
