checkpoint/xor_net_03.pt (torch, 1631 bytes, 4 tensors)

0.weight f4 [8, 2]
0.5095415 0.5439943 -0.15112552 0.6519442 -0.15492962 0.14268756 -0.979468 1.0455021
1.1622082 -1.0330676 0.5746451 0.08570801 0.5196504 0.4217719 0.36465603 -0.06694358
00000000: 5071 023f 3643 0b3f a6c0 1abe d1e5 263f
00000010: dfa5 1ebe b01c 123e 6abe 7abf 03d3 853f
00000020: 3dc3 943f 8f3b 84bf f11b 133f ae87 af3d
00000030: cf07 053f 7df2 d73e 32b4 ba3e b719 89bd

0.bias f4 [8]
0.5503672 0.1170426 -0.33010566 -0.040661525 -0.093891494 -0.027205892 -0.460207 0.461765
00000000: dde4 0c3f 08b4 ef3d 9c03 a9be b38c 26bd
00000010: 2f4a c0bd e4de debc 40a0 ebbe 766c ec3e

2.weight f4 [2, 8]
-0.2790845 -0.16299176 -0.09983455 -0.21258192 0.03336947 -0.3491973 0.31929728 -0.30033237
0.048611492 -0.07175985 -0.114800386 1.3331567 1.2904516 0.13404496 -0.54453766 -0.13345103
00000000: 2ae4 8ebe 50e7 26be 0e76 ccbd 13af 59be
00000010: 6dae 083d fdc9 b2be ef7a a33e 2ac5 99be
00000020: d81c 473d d4f6 92bd 771c ebbd e1a4 aa3f
00000030: 852d a53f 1543 093e d266 0bbf 63a7 08be

2.bias f4 [2]
0.09499402 -0.04329307
00000000: 3a8c c23d 1354 31bd
