checkpoint/xor_net_relu_30.pt (torch, 1631 bytes, 4 tensors)

0.weight f4 [8, 2]
1.4700673 1.4489081 -0.7135264 1.6450257 -0.15492962 0.14268756 -1.8304361 4.2778835
3.868845 -1.7464597 2.5667567 -1.1527404 3.9404507 3.8535957 -1.8390073 -2.0905836
00000000: 2a2b bc3f d275 b93f aba9 36bf 3490 d23f
00000010: dfa5 1ebe b01c 123e bb4b eabf 6ce4 8840
00000020: 289b 7740 fe8b dfbf be45 2440 ff8c 93bf
00000030: 5830 7c40 50a1 7640 9764 ebbf 1fcc 05c0

0.bias f4 [8]
-0.34081683 -0.47025383 -0.33010566 -1.2353152 -1.0698739 -0.71275294 -3.9052324 1.9773003
00000000: 8b7f aebe 1cc5 f0be 9c03 a9be cf1e 9ebf
00000010: a1f1 88bf fa76 36bf 54ef 79c0 2d18 fd3f

2.weight f4 [2, 8]
-1.3440368 -1.2749945 -0.09983455 -3.3781714 -2.9835126 -2.0559683 4.931526 2.1731946
1.3379071 1.1708381 -0.114800386 3.384067 3.0719788 1.9924272 -4.5735984 -2.5850062
00000000: 6609 acbf 0533 a3bf 0e76 ccbd f633 58c0
00000010: dff1 3ec0 fc94 03c0 10cf 9d40 9f15 0b40
00000020: 8a40 ab3f 06de 953f 771c ebbd 8e94 5840
00000030: 4d9b 4440 db07 ff3f eb5a 92c0 be70 25c0

2.bias f4 [2]
1.636268 -1.6371503
00000000: 3b71 d13f 248e d1bf
