checkpoint/xor_net_20.pt (torch, 1631 bytes, 4 tensors)

0.weight f4 [8, 2]
000000 f8 33 a3 3f 3f d7 a1 3f ba 1f 18 bf b9 83 bc 3f
       1.2750235 1.2643813 -0.5942341 1.4727699
000010 df a5 1e be b0 1c 12 3e 7a 26 bf bf 30 3d 73 40
       -0.15492962 0.14268756 -1.4933617 3.8006096
000020 c5 c9 5b 40 8b 36 b9 bf ac ac 11 40 35 91 73 bf
       3.43419 -1.446977 2.276164 -0.95143443
000030 bc 8b 5b 40 f8 10 57 40 26 42 a4 bf dd 66 ca bf
       3.4304037 3.3604107 -1.2832687 -1.5812641

0.bias f4 [8]
000000 75 23 27 be 62 e8 e1 be 9c 03 a9 be 60 4f 94 bf
       -0.1632212 -0.44122607 -0.33010566 -1.1586723
000010 22 b5 7f bf f6 85 2a bf e5 b9 5c c0 4c 98 b9 3f
       -0.9988576 -0.6661066 -3.448846 1.4499602

2.weight f4 [2, 8]
000000 b1 d0 8e bf 8d 2b 8f bf 0e 76 cc bd 6e 5a 3e c0
       -1.1157438 -1.1185166 -0.09983455 -2.9742694
000010 39 f4 26 c0 1d 63 e7 bf 77 bb 8a 40 fe cc c1 3f
       -2.6086562 -1.8077122 4.335384 1.5140684
000020 cc 07 8e 3f 8d d6 81 3f 77 1c eb bd 08 bb 3e 40
       1.109613 1.0143601 -0.114800386 2.9801655
000030 a7 9d 2c 40 0c 41 df 3f a6 8e 7e c0 f8 83 f6 bf
       2.6971223 1.7441726 -3.9774566 -1.9259024

2.bias f4 [2]
000000 53 3a c8 3f 3f 57 c8 bf
       1.5642799 -1.5651625
