checkpoint/xor_net_sigmoid_20.pt (torch, 1631 bytes, 4 tensors)

0.weight f4 [8, 2]
10.859825 10.975858 -3.8521307 5.3037887 0.51874834 0.51055616 -8.188581 7.8087745
10.583876 -10.684851 5.959525 -5.039947 10.933459 10.536423 10.633279 -10.189006
00000000: d8c1 2d41 1d9d 2f41 4f89 76c0 a3b8 a940
00000010: b1cc 043f cfb3 023f 6e04 03c1 7be1 f940
00000020: 8e57 2941 26f5 2ac1 6eb4 be40 3f47 a1c0
00000030: 73ef 2e41 3095 2841 e921 2a41 2b06 23c1

0.bias f4 [8]
-7.9378533 0.8350056 -1.1163207 -2.2327542 -2.631588 1.6774738 -13.642441 2.448575
00000000: e502 fec0 edc2 553f 99e3 8ebf 72e5 0ec0
00000010: f06b 28c0 76b7 d63f 7047 5ac1 74b5 1c40

2.weight f4 [2, 8]
-16.057606 3.808883 0.40327653 -6.383712 -14.669938 3.940327 15.556393 8.874181
16.051455 -3.913067 -0.6179233 6.3895984 14.758392 -4.0038934 -15.198461 -9.286063
00000000: fa75 80c1 bdc4 7340 437a ce3e 5e47 ccc0
00000010: 11b8 6ac1 512e 7c40 fce6 7841 a5fc 0d41
00000020: 6169 8041 b16f 7ac0 3930 1ebf 9777 cc40
00000030: 6022 6c41 e51f 80c0 e52c 73c1 b793 14c1

2.bias f4 [2]
0.5588193 -0.5597163
00000000: c80e 0f3f 9149 0fbf
