checkpoint/xor_net_07.pt (torch, 1631 bytes, 4 tensors)

0.weight f4 [8, 2]
00000000: 0d90 033f 76c2 0c3f 8059 1ebe 6c1e 253f
00000010: dfa5 1ebe b01c 123e 2396 cdbf a9e6 f73f
00000020: 2b86 fe3f 70bb d1bf 26e8 173f 16f1 eb3d
00000030: d59b 663f 4443 653f e4b2 b03e 9b12 bcbd
0.5139168 0.54984224 -0.15463829 0.64499545 -0.15492962 0.14268756 -1.6061443 1.9367267
1.9884695 -1.6385326 0.59338605 0.11520593 0.9008153 0.89555764 0.34511483 -0.09183236

0.bias f4 [8]
00000000: 8bd9 093f 9b5b 053e 9c03 a9be 864d 93be
00000010: cbe7 a0be 7315 3cbd 146b 65bf 49da 003f
0.5384757 0.13023226 -0.33010566 -0.28770083 -0.31426844 -0.045918893 -0.89616513 0.50333077

2.weight f4 [2, 8]
00000000: 2ae4 8ebe 50e7 26be 0e76 ccbd 13af 59be
00000010: 6dae 083d fdc9 b2be ef7a a33e 2ac5 99be
00000020: 15fa 493d 6d58 e2bc 771c ebbd fd77 1e40
00000030: 7962 1c40 92a7 5e3e 7059 b7bf 9ecf 61be
-0.2790845 -0.16299176 -0.09983455 -0.21258192 0.03336947 -0.3491973 0.31929728 -0.30033237
0.049310762 -0.027630055 -0.114800386 2.4760735 2.4435103 0.2174361 -1.4324169 -0.22051856

2.bias f4 [2]
00000000: 3a8c c23d 37f0 8fbe
0.09499402 -0.28112957
