checkpoint/xor_net_06.pt (torch, 1631 bytes, 4 tensors)

0.weight f4 [8, 2]
00000000: f93b 033f 9b66 0c3f 5760 1dbe d566 253f
00000010: dfa5 1ebe b01c 123e cfe3 c1bf c6ee e23f
00000020: 23f0 e93f 08da c6bf 2a50 163f 3948 da3d
00000030: cecf 493f 9f31 473f 89fe b33e bed5 adbd
0.51263386 0.54844064 -0.15368782 0.64610034 -0.15492962 0.14268756 -1.5147647 1.7729118
1.8276409 -1.5535288 0.5871607 0.10658307 0.7883271 0.7781009 0.35155132 -0.08488034

0.bias f4 [8]
00000000: 138c 0a3f a184 033e 9c03 a9be 78e6 62be
00000010: 21cd 80be 4ba9 29bd 2fb1 48bf 17e1 fb3e
0.54119986 0.12843563 -0.33010566 -0.2215823 -0.251565 -0.041421216 -0.7839536 0.49195167

2.weight f4 [2, 8]
00000000: 2ae4 8ebe 50e7 26be 0e76 ccbd 13af 59be
00000010: 6dae 083d fdc9 b2be ef7a a33e 2ac5 99be
00000020: 5904 3a3d ec7c 17bd 771c ebbd 2607 1240
00000030: fdd8 0f40 0493 463e 9493 9bbf 9be6 4dbe
-0.2790845 -0.16299176 -0.09983455 -0.21258192 0.03336947 -0.3491973 0.31929728 -0.30033237
0.045414302 -0.03698437 -0.114800386 2.2816863 2.247619 0.1939202 -1.2154412 -0.201075

2.bias f4 [2]
00000000: 3a8c c23d c50b 68be
0.09499402 -0.2266074
