checkpoint/xor_net_sigmoid_05.pt (torch, 1631 bytes, 4 tensors)

0.weight f4 [8, 2]
0	0x411186b9	9.095391
1	0x411011c2	9.004335
2	0xbf998543	-1.1993793
3	0x4054b38b	3.3234584
4	0x3f51ac3d	0.8190344
5	0x3eab3d1a	0.33445054
6	0xc0bbe478	-5.8716393
7	0x4091d128	4.556782
8	0x410845e3	8.517062
9	0xc11ce0e3	-9.804904
10	0x4093d9b9	4.6203275
11	0xc0276284	-2.615388
12	0x40f637f6	7.694331
13	0x40e0bb0a	7.022832
14	0x40f5e0e2	7.6837015
15	0xc0c9b668	-6.3035164

0.bias f4 [8]
0	0xc0d42fcc	-6.6308346
1	0x3e5937a5	0.21212633
2	0xbf5b19e9	-0.8558641
3	0xbfa25f57	-1.2685345
4	0xbfe828b4	-1.8137422
5	0x3f2144eb	0.62995785
6	0xc118a4ca	-9.540232
7	0x3fc29c0a	1.5203869

2.weight f4 [2, 8]
0	0xc122b7b3	-10.169848
1	0x3fd4cdf6	1.6625354
2	0x3ee8bf0f	0.45458266
3	0xc08c381b	-4.381849
4	0xc1170e56	-9.441
5	0x403bed98	2.9363766
6	0x41130979	9.189813
7	0x40b7ad80	5.739929
8	0x41229e99	10.16372
9	0xbfe222ec	-1.7666907
10	0xbf2b51ec	-0.6692188
11	0x408c686c	4.387747
12	0x411878ad	9.529462
13	0xc03ffea2	-2.9999166
14	0xc10d4f51	-8.831864
15	0xc0c4db33	-6.1517577

2.bias f4 [2]
0	0x3ed12e39	0.40855578
1	0xbed1a1ba	-0.409437
