checkpoint/xor_net_05.pt (torch, 1631 bytes, 4 tensors)

0.weight f4 [8, 2]
00000000: 58f1 023f 950e 0c3f 0e43 1cbe eec8 253f
00000010: dfa5 1ebe b01c 123e 482a b1bf 54b6 c93f
00000020: 91a0 d13f 8662 b7bf 62f6 143f 0d4f ca3d
00000030: 455e 2f3f 51a6 293f 9bd9 b63e 283d a0bd
0.5114951 0.5470975 -0.15259954 0.6475972 -0.15492962 0.14268756 -1.3841028 1.5758767
1.6377126 -1.4326942 0.5818845 0.09878359 0.6850322 0.66269404 0.35712895 -0.07824165

0.bias f4 [8]
00000000: a546 0b3f e9b4 003e 9c03 a9be 453f 1fbe
00000010: e673 3fbe ea70 14bd d5ac 2bbf 79fd f53e
0.5440467 0.12569012 -0.33010566 -0.15551479 -0.18696555 -0.036240496 -0.67060596 0.48044947

2.weight f4 [2, 8]
00000000: 2ae4 8ebe 50e7 26be 0e76 ccbd 13af 59be
00000010: 6dae 083d fdc9 b2be ef7a a33e 2ac5 99be
00000020: 6ed8 383d 0279 40bd 771c ebbd 4649 0240
00000030: 4718 0040 8b9a 2f3e 7e48 7fbf 2a1e 37be
-0.2790845 -0.16299176 -0.09983455 -0.21258192 0.03336947 -0.3491973 0.31929728 -0.30033237
0.04512828 -0.046990402 -0.114800386 2.0357223 2.0014818 0.17148797 -0.9971999 -0.178826

2.bias f4 [2]
00000000: 3a8c c23d 1672 29be
0.09499402 -0.16547427
