checkpoint_/xor_net_10.pt (torch, 1631 bytes, 4 tensors)

0.weight f4 [8, 2]
0.69631445 0.71983373 -0.5929906 1.1950015 -0.15492962 0.14268756 -1.4654256 3.0216064
2.744893 -1.3646706 1.8155555 -0.89110583 2.3834252 2.3944907 -0.10682756 -0.5440318
00000000: aa41 323f 0647 383f 3bce 17bf cff5 983f
00000010: dfa5 1ebe b01c 123e 1193 bbbf 0062 4140
00000020: 54ac 2f40 87ad aebf 1f64 e83f 831f 64bf
00000030: 0a8a 1840 563f 1940 68c8 dabd ab45 0bbf

0.bias f4 [8]
0.34707326 -0.27729526 -0.33010566 -0.7190081 -0.64405274 -0.43156752 -2.5010586 0.84770817
00000000: 96b3 b13e a5f9 8dbe 9c03 a9be ea10 38bf
00000010: a4e0 24bf 6bf6 dcbe 5811 20c0 6703 593f

2.weight f4 [2, 8]
-0.42180988 -0.8940947 -0.09983455 -2.3985379 -2.0801127 -1.4574623 3.121584 0.38537598
0.4156781 0.7899388 -0.114800386 2.4044342 2.1685786 1.3939226 -2.7636359 -0.7972075
00000000: 77f7 d7be 64e3 64bf 0e76 ccbd a581 19c0
00000010: 9120 05c0 208e babf 08c8 4740 0050 c53e
00000020: c3d3 d43e 6e39 4a3f 771c ebbd 40e2 1940
00000030: fec9 0a40 0e6c b23f 69df 30c0 ca15 4cbf

2.bias f4 [2]
1.2238142 -1.224697
00000000: f2a5 9c3f dfc2 9cbf
