checkpoint_/xor_net_sigmoid_10.pt (torch, 1631 bytes, 4 tensors)

0.weight f4 [8, 2]
0	0x4120e6cc	10.056347
1	0x41214a7c	10.080685
2	0xc00db778	-2.214323
3	0x4082e450	4.09037
4	0x3f3223cf	0.6958589
5	0x3eda9553	0.4269205
6	0xc0dd4f48	-6.915928
7	0x40c95033	6.29104
8	0x411aba10	9.670425
9	0xc123fa0a	-10.248545
10	0x40a58429	5.172383
11	0xc076e690	-3.8578224
12	0x4116ec70	9.432724
13	0x41106206	9.0239315
14	0x41115df0	9.085434
15	0xc10616d3	-8.380572

0.bias f4 [8]
0	0xc0ec03a9	-7.375447
1	0x3ecc6577	0.39921162
2	0xbf78143b	-0.9690587
3	0xbfea1f1c	-1.8290744
4	0xc017d3dc	-2.3723059
5	0x3fa26b5b	1.2689012
6	0xc13d4834	-11.830128
7	0x3ff89033	1.9419006

2.weight f4 [2, 8]
0	0xc14b6f37	-12.714652
1	0x401f370e	2.4877353
2	0x3ee2aeef	0.4427409
3	0xc0a965ae	-5.293662
4	0xc13f8fca	-11.972605
5	0x4056a7ac	3.3539839
6	0x4141b08e	12.105604
7	0x40e8164d	7.2527223
8	0x414b5614	12.708515
9	0xc025e1d2	-2.591908
10	0xbf284a33	-0.6573822
11	0x40a995f4	5.299555
12	0x4140fa1b	12.061061
13	0xc05ab8d2	-3.4175305
14	0xc13bf66d	-11.747663
15	0xc0f54413	-7.66456

2.bias f4 [2]
0	0x3efcfcb7	0.49411556
1	0xbefd710c	-0.4950031
